dnn_model.pth (torch, 946046 bytes, 27 tensors)

feature_extractor.0.weight f4 [512, 107]
000000 95 bc 70 bd 4c d3 03 3d 00 c7 9a 3d d7 db d6 bd
       -0.058773596 0.03218393 0.075574875 -0.1049115
000010 62 32 9f bb 58 57 e6 3d e3 2a 76 be a1 32 84 bc
       -0.004858301 0.11247128 -0.24039797 -0.016137423
000020 3e 9d 68 be c3 b5 40 bd e8 c7 4c bd cf a3 60 bc
       -0.22716233 -0.04704834 -0.049995333 -0.01371093
000030 2b 97 55 bd 59 7a 07 3d 08 22 1f bc f7 7e 5a bd
       -0.052146118 0.033075664 -0.0097127035 -0.05334374
000040 00 10 71 3c 14 8e da 3d 86 73 b0 3d 0c 7e 42 3d
       0.014713287 0.106716305 0.08615784 0.04748349
000050 a5 f8 7b 3e fc 7a 93 3d 90 fc 12 bc 8c 21 0c bd
       0.24606569 0.07201192 -0.008971348 -0.03421168
000060 00 9e 3e bc ba 76 cd bd b0 e6 8c 3d 60 79 70 3d
       -0.01163435 -0.10032411 0.06879938 0.058709502
000070 25 eb f3 3d 0f a0 a7 bd 8f c9 25 3e 37 b8 55 bd
       0.11910085 -0.08184826 0.1619017 -0.052177634
000080 99 c5 c2 bd 30 5e 16 3d d8 c8 40 3d 5c bd 79 3e
       -0.09510345 0.036710918 0.04706654 0.24388641
000090 e1 3b f2 3b a6 8f 38 bd 2e 65 b2 3d 95 84 9a 3d
       0.007392392 -0.04505887 0.08710705 0.07544819
0000a0 2e a9 c0 3d 63 b8 75 bd 7c d5 55 bd 62 a4 ff 3d
       0.094072685 -0.059990298 -0.052205548 0.124825254
0000b0 c1 48 37 3e 30 59 94 3d 21 ca 84 3e d3 5c 6b bc
       0.17898847 0.07243574 0.25935462 -0.014365393
0000c0 e5 07 d1 bd 00 40 4a b7 c0 eb e3 3b 47 7c 95 bc
       -0.10206584 -1.2055039e-05 0.006955594 -0.018247737
0000d0 84 90 6b 3d 8c f5 81 3d 78 3e af 3c 6f 53 da bd
       0.057510868 0.063456625 0.021392092 -0.10660445
0000e0 07 0c 32 3d bc e6 46 3c 43 ac b5 3d 60 bf fb bc
       0.0434685 0.012139972 0.08870747 -0.030730903
0000f0 2c 90 8a be 06 db 15 be 86 8f cb 3c 3a 93 26 3c
       -0.2706312 -0.14634332 0.02484871 0.0101669375
000100 ca 0c 6f bd f0 65 6c 3e ef 2a 71 be d2 af 8d 3e
       -0.058361806 0.23085761 -0.23551534 0.27673203
000110 fc 33 8d bd b9 ec 55 3d de d1 dd 3b c1 7c 7c bd
       -0.06894681 0.05222771 0.006769403 -0.061642412
000120 a8 4a ee 3d 2d 2b 79 bd 8d ae 4a bd bc 97 01 3d
       0.11635333 -0.06083219 -0.04948287 0.031638846
000130 47 ea 59 3d 0c 96 ba bc 2b c8 1d bc 3f b1 09 bc
       0.05320194 -0.022776626 -0.009630243 -0.008404075
000140 4a 3c f3 3c df 24 97 3d 64 04 69 bd b5 b5 e2 bc
       0.029691834 0.073800795 -0.056888953 -0.027674535
000150 af 08 5b bd 14 41 bf bd 95 52 ba bd e4 38 c3 bc
       -0.05347508 -0.093385845 -0.090977825 -0.023830839
000160 16 c1 3a bd 62 84 c9 bc 82 b8 b3 3d 4d 19 bb 3c
       -0.045594297 -0.024599258 0.087754264 0.022839213
000170 67 68 93 bd 78 d5 8a bc 0c f3 c1 bd 89 3e 81 3c
       -0.071976475 -0.016947493 -0.09470186 0.01577689
000180 27 e1 95 bd a1 4e 79 3d d6 63 7f 3d 54 2a 90 bc
       -0.07318335 0.060866002 0.06235107 -0.017598309
000190 1d 3f 80 bd aa 12 21 bd 91 e1 21 3b cf 91 ad 3d
       -0.06262038 -0.03932444 0.0024701098 0.084750764
0001a0 1f ac 91 3d 94 58 0e bd dd 01 b8 3d 7f 25 91 bd
       0.071129076 -0.034752443 0.089847304 -0.0708723
0001b0 4f e5 a3 bc ec 49 5f bc ea f9 26 bc d0 70 c2 bd
       -0.020006804 -0.013628464 -0.01019142 -0.094941735
0001c0 2d 0c b6 3d fa 06 49 3d 7d 56 81 3c c2 d2 06 3d
       0.08889041 0.04907892 0.015788311 0.032915838
0001d0 84 a4 7c 3c 76 11 38 bd 90 87 ab 3d 82 f3 9b bd
       0.015420083 -0.044938527 0.08375466 -0.07614805
0001e0 53 d8 8f 3d c7 7a 9d bd 57 ba 6c 3d e3 3a b8 3d
       0.070236824 -0.076894335 0.057794895 0.08995607
0001f0 6f c4 d8 3c ed cb 38 bd 48 d2 67 3d b6 bc 11 bc
       0.026460854 -0.045116354 0.056597024 -0.00889509
000200 91 d1 5c bd 32 c2 2f 3d e1 0e 86 3d 41 64 e8 3d
       -0.053910796 0.04290981 0.06545807 0.11347247
000210 f8 d7 12 3b 8d 2b c2 bc 1b c0 40 3d 37 3d f0 bb
       0.002240656 -0.023702407 0.047058206 -0.007331516
000220 b8 2e 44 3d f5 39 26 bd a2 9e b9 3c f9 a4 59 ba
       0.047896117 -0.040582616 0.02265865 -0.0008302476
000230 1b ec 60 3d e4 78 a0 bd f0 a9 8d 3d c6 33 bb 3d
       0.054912668 -0.07835558 0.06917179 0.091407344
000240 4b 51 89 3d 1d 33 a7 3d a8 f8 0e bc 1d 8a 9b 3d
       0.067049585 0.08164046 -0.008726276 0.075947024
000250 ec 0a e0 3b c7 16 31 3d 12 09 a4 3c 3d 75 b9 3b
       0.0068372395 0.043234613 0.020023856 0.005659728
000260 f8 83 52 3d 85 da 4d bc 20 1c 73 3c 41 6d 99 ba
       0.051395386 -0.012564306 0.0148382485 -0.0011705534
000270 50 3f c2 3c 88 37 87 3c be fc 33 3b cc f0 80 bd
       0.02371183 0.016505972 0.0027463879 -0.06295928
000280 e9 9e b5 bd f4 d7 ae 3c 4c 7f 66 3c dd 13 ba bd
       -0.088682 0.021343209 0.014068436 -0.0908582
000290 b0 7b c6 3d b2 5a bf 3d 72 45 b2 bb 76 8c 55 3c
       0.0969156 0.09343471 -0.0054404074 0.013033977
0002a0 9e 3a 62 3c 29 9f d0 3c 69 fa 79 3c f7 e4 31 3c
       0.013807921 0.025466518 0.015257456 0.010857812
0002b0 a5 b8 92 bd 91 49 b2 3c 06 41 a8 3d 33 a4 97 bd
       -0.071641244 0.021763595 0.08215527 -0.074043654
0002c0 2c 17 1e bd f3 81 a2 3d 05 3b aa bc c3 a7 b8 bd
       -0.038596317 0.07934942 -0.020780096 -0.09016373
0002d0 00 0b 00 bc ca 3d 46 bc 53 56 2b bd 90 e4 04 bd
       -0.007815123 -0.012099693 -0.041830372 -0.032444537
0002e0 8b 4a 2f bd c7 38 28 3d ad 40 40 bc e7 c5 9c 3d
       -0.0427957 0.041069772 -0.01173417 0.076549344
0002f0 68 4c 9e bd 8b 97 81 bc a4 f0 90 3d 31 42 a8 bd
       -0.07729417 -0.015819332 0.070771486 -0.0821575
000300 cc a3 da bd 36 97 44 bd f5 50 b4 3d 58 ac 7b 3c
       -0.10675773 -0.04799577 0.08804504 0.015360914
000310 45 33 7d 3d 01 30 a4 bd 4c 88 a7 bd 84 f4 cf bc
       0.061816473 -0.080169685 -0.081802934 -0.025385149
000320 14 32 5d 3d 04 0a 9a bd 72 a2 b3 3d ad 99 e8 3a
       0.054002836 -0.075214416 0.08771218 0.0017745994
000330 7b bb 31 3d 8d aa bd bc 4b 78 a4 3d a3 9c 40 bc
       0.043391686 -0.023152614 0.080307566 -0.011756095
000340 c3 81 49 3d ab 28 fa bc 32 3e 9f bd 21 7e a1 3d
       0.049196016 -0.03053697 -0.07775535 0.07885385
000350 be 93 17 bd fb 72 6c bd 8d d6 b3 3b 47 e1 2f 3e
       -0.037006132 -0.05772684 0.005488223 0.1717578
000360 79 10 d1 3d 25 fb eb bc ed 30 88 3c e6 26 98 3d
       0.1020822 -0.028806278 0.016624892 0.07429294
000370 14 3d 73 bd 7f aa d6 3c 87 5d 0d be 92 88 a0 bc
       -0.05938442 0.026204346 -0.13805209 -0.019596372
000380 bb 35 c6 bd 36 6e 2f bd 4d b1 0b bd f8 ba 67 bd
       -0.09678217 -0.042829715 -0.034104634 -0.05657479
000390 dc 1a b5 bd 62 80 52 3d 96 cd 44 3b c9 51 10 3d
       -0.08843014 0.051391967 0.0030029765 0.035234246
0003a0 2e b5 95 3d 08 14 05 3c 97 f9 30 3e 6c 08 6a bd
       0.07309948 0.008122452 0.17282711 -0.057136938
0003b0 b8 8d 3a 3c 0c 98 a3 bb 86 fd 92 bd 51 fe 0d bb
       0.011386327 -0.0049924906 -0.07177262 -0.0021666477
0003c0 c4 56 cf 3a d4 79 c1 bc a8 c9 8a 3d da ec a1 3c
       0.0015818705 -0.023617662 0.06776744 0.01976626
0003d0 4e 21 c7 3c 59 54 9d bd 57 08 a4 bd ba 3c aa 3c
       0.024307873 -0.07682104 -0.08009403 0.02078091
0003e0 b5 37 ac bd 42 c1 d3 3a f9 1d 02 be 29 22 bb bd
       -0.08409063 0.0016155618 -0.12706746 -0.09137375
0003f0 78 11 bd 3c 8e 8e e0 bc 33 fc 94 bc f9 aa a3 3d
       0.023079619 -0.027411725 -0.018186664 0.07991595

feature_extractor.0.bias f4 [512]
000000 dd a9 bd bd 88 3f a9 bd b3 1a 82 3c cb 9e e8 3b
       -0.092609145 -0.08264071 0.015881872 0.0070990077
000010 0f ac 59 bd 55 e3 40 3d f0 42 73 bc 10 a9 81 bd
       -0.053142603 0.0470918 -0.014847502 -0.06331074
000020 37 28 1c bc 1e e9 11 bd e4 1b 1a 3d ec e9 ab 3d
       -0.009531072 -0.03562271 0.037624255 0.083942264
000030 18 4a f3 bc 4c cf 75 bd cb 9d e3 bc 3e 51 73 3d
       -0.029698417 -0.060012147 -0.027785202 0.05940365
000040 72 76 88 3d 60 f2 2e bc 36 32 85 bd 9a 25 52 bd
       0.06663217 -0.010677904 -0.065037176 -0.05130539
000050 82 a1 1a bd f0 63 1e bd 7d c1 7c bd 3f 8a 46 3c
       -0.037751682 -0.038669527 -0.061707962 0.012117921
000060 9b c5 a7 3d 58 f9 48 3d 2a 3c 35 bd bf 15 93 bd
       0.08191987 0.049065918 -0.04424683 -0.07181882
000070 1a 84 3b bd 86 f3 b8 3d 48 d6 77 bc a4 2b 13 3d
       -0.04578028 0.090308234 -0.015126772 0.03593029
000080 42 6b 11 3d b6 db 12 3d 47 6f b4 3d 2c 0b 9e 3d
       0.03550268 0.035854064 0.08810287 0.077169746
000090 99 3f a8 3d aa 71 a6 3d 68 52 66 bc 79 2d 2a bd
       0.08215255 0.081271484 -0.014057733 -0.041547272
0000a0 10 2d ca bc 0c 93 cf bc c7 c3 7a 3d 5a 86 95 3d
       -0.02467969 -0.025338672 0.061221864 0.07301016
0000b0 c2 df f9 bb 1d 35 a0 bd 20 d8 aa 3d 68 7e c2 3d
       -0.007625551 -0.078226306 0.08342004 0.09496766
0000c0 7c f2 ac 3c 16 9f d9 3c c6 61 bd 3d 14 cf b4 3d
       0.02111172 0.026565116 0.092471644 0.088285595
0000d0 70 42 25 3d c6 73 a4 bd da a7 b7 bd 0a 79 94 3d
       0.040346563 -0.080298945 -0.08967562 0.07249649
0000e0 ac de c2 3d ed 89 89 3d 65 2c c5 bd b7 bc 8d bc
       0.095151275 0.067157604 -0.09627608 -0.0173019
0000f0 b7 8e 84 3c e8 23 8b 3d 74 87 b0 bd 37 ee 25 bd
       0.016181333 0.06793958 -0.08619586 -0.040510383
000100 31 8b bd 3d 2c de 1b bd c4 f6 d8 3c 02 dc 3a bc
       0.09255064 -0.038053676 0.026484855 -0.011404993
000110 56 6b a1 3d 56 09 38 bd bb be c2 3c 56 80 60 3d
       0.07881801 -0.04493078 0.023772588 0.05480989
000120 ee bc 60 3d 4a dc c3 bd 7c cf 2c 3d 5a e6 ad 3d
       0.054867677 -0.09563501 0.04219006 0.08491202
000130 3c 89 98 bd 88 c2 c3 3c 51 19 4c bd 81 db bb bd
       -0.074480504 0.02389647 -0.04982883 -0.091727264
000140 0c 78 88 3c ba d7 24 3d 3b 31 b5 bd 0e 28 88 bd
       0.016658805 0.040244795 -0.088472806 -0.06648265
000150 a8 83 92 3c 8d d6 16 bd 0a ac 87 bd ed 82 4d 3d
       0.017885044 -0.036825705 -0.06624611 0.05017369
000160 cc 03 51 3d c0 a9 4c 3c af 9c af 3c 28 1d 3a bb
       0.05102901 0.012491643 0.021437017 -0.0028398726
000170 39 25 2c bd 47 17 83 bd 0c 4d 3d 3d f8 f3 82 3a
       -0.042027686 -0.06400924 0.046216056 0.0009990921
000180 ef 33 7e 3b 84 e3 b5 bd b4 b7 35 3d b7 92 98 bc
       0.003878828 -0.08881286 0.044364646 -0.018624647
000190 cd 6c c2 3d 0e 42 9b 3c a6 6e 9e 3d 70 49 a4 bd
       0.09493408 0.018952396 0.07735948 -0.080218196
0001a0 70 84 91 bd 3c 1d 86 3d 81 42 c4 bc 73 02 a8 bd
       -0.071053386 0.06548545 -0.023957493 -0.08203592
0001b0 04 8f 7b bd bd 0a c2 3c 52 cd a8 3d a1 eb 2b bd
       -0.061415687 0.023686761 0.08242287 -0.04197276
0001c0 6c 55 af 3d d2 77 90 3d 9b cc b8 bd b0 56 60 3d
       0.08561215 0.07054104 -0.090234004 0.05477017
0001d0 0a 99 f9 bb fb 67 52 3d 9f 5c db bc ec ac fd 3c
       -0.0076171206 0.051368695 -0.026777564 0.030966245
0001e0 df ea 82 bd b0 32 34 3d ab 15 af bd bc a3 9f bd
       -0.06392454 0.043993652 -0.08549055 -0.07794902
0001f0 9d 08 41 bd 2f 1e af bd 78 0a 9f 3d 30 80 9b bd
       -0.047127355 -0.08550679 0.07765669 -0.07592809
000200 4c 12 6a 3b f0 87 76 3d 8f d4 69 bd 88 0a bf bd
       0.0035716472 0.060188234 -0.057087477 -0.093281806
000210 c9 90 33 bc ec 51 1f 3c 98 14 e7 3c 34 b5 35 3d
       -0.010959812 0.009724122 0.028208062 0.044362262
000220 7d 0c 2b 3d 50 36 01 3d 21 2e a5 3d f0 40 87 bd
       0.041759957 0.031545937 0.08065439 -0.06604183
000230 7f 41 a1 bc 58 18 a8 bd e5 15 70 bd d8 ab 37 3d
       -0.019684551 -0.08207768 -0.05861463 0.044841617
000240 98 8c 79 3d da 2e 86 3c f3 d7 b6 bd 7b 45 8a 3d
       0.060925096 0.016379762 -0.08927908 0.067515336
000250 24 a8 83 3d 90 0e b4 bd 05 a1 b6 3d da 63 09 3d
       0.06428555 -0.0879184 0.08917431 0.03354249
000260 c5 a7 5c 3d ec e5 87 bd ab dd 66 bd 1e 97 8b 3c
       0.053870935 -0.06635651 -0.056363743 0.017039832
000270 c8 ee df 3c 3c 27 bf 3d e6 32 96 bd 54 27 3d bd
       0.02733554 0.09333655 -0.07333927 -0.046180084
000280 a0 9c a1 bd e8 08 96 bc 9b a0 c3 3d 0c 5a 55 3d
       -0.07891202 -0.018314794 0.095521174 0.05208783
000290 11 57 89 3b 13 4d a7 bc 4b d3 24 bd 76 b2 b3 3d
       0.0041912873 -0.020422494 -0.040240567 0.08774273
0002a0 5e 7c b3 3d 6a 22 57 bd 4f 69 01 3d a6 76 79 3d
       0.087639555 -0.052523054 0.03159457 0.060904168
0002b0 4f 2b 93 bd 10 ba 29 3d 7c 89 20 3d 0c d1 19 3d
       -0.07185995 0.04143721 0.039193615 0.03755288
0002c0 c6 51 01 bd b8 ac 61 bc 0c 05 81 bd a3 7c cd bc
       -0.031572126 -0.0137740895 -0.06299791 -0.025083845
0002d0 ec fe a2 3d 60 e6 7d 3d 7c 14 9f bd 6d 29 85 3d
       0.07958779 0.06198728 -0.07767579 0.06502042
0002e0 aa e4 a8 bd 3a 7b 7e bd 19 43 99 3c d4 99 f4 bc
       -0.08246739 -0.062129237 0.018708752 -0.029858507
0002f0 63 88 53 bd e5 f7 8c 3c 5a 16 98 bc f6 e2 8a bd
       -0.05164374 0.01720805 -0.018565346 -0.067815706
000300 12 81 45 bd 50 7c 73 bc 8d 52 72 bd 14 f6 88 3c
       -0.048218794 -0.014861181 -0.059160758 0.016718902
000310 14 7f 13 3d 66 35 c5 3d 28 f0 58 3d 7d ea a1 3b
       0.036009863 0.096293256 0.052963406 0.0049412833
000320 48 a8 b1 3c 2e 4d 9f 3d d3 8b 1d 3d 1f 9c c5 bd
       0.021686688 0.07778393 0.038463425 -0.09648918
000330 fe b8 fb bc 24 d7 cd 3c 66 3d 2c bd f0 4b 45 bc
       -0.03072786 0.025127001 -0.04205074 -0.012042031
000340 7f cb 5b bd 9e ba b0 3d 60 e9 48 3d c4 e5 ec bc
       -0.053660866 0.086293444 0.04905069 -0.028918155
000350 88 c0 a5 bc 0c 25 ac 3d ca 3b 73 bd 64 d5 b9 3d
       -0.020233408 0.08405504 -0.05938319 0.09073904
000360 f1 e3 f8 bc 0d 76 d4 bc 34 c3 90 3d 4f f2 c4 bd
       -0.030382128 -0.025935197 0.07068482 -0.09616529
000370 a8 f9 70 bd 3f 01 a6 3d da 05 b1 3d cd 13 ad bd
       -0.05883184 0.081057064 0.08643694 -0.08451042
000380 92 7c 4c bd e9 e8 73 bd 7e 8a 83 bd da a6 83 3d
       -0.049923487 -0.059548292 -0.064229 0.06428309
000390 27 8f 4e 3d db 47 aa bd 41 3b c2 bd c5 61 28 bd
       0.05042949 -0.083144866 -0.09483958 -0.041108865
0003a0 b0 46 b5 bc fe a0 0b 3d b2 ee 13 bd 0f 54 2a bd
       -0.022128433 0.03408908 -0.03611631 -0.04158407
0003b0 66 8e 94 3d 74 1d 9b bd 5a aa a8 bd 52 e0 9c 3d
       0.07253723 -0.07573977 -0.08235617 0.07659973
0003c0 29 3b 38 bd a0 65 ac 3d b7 e2 62 bd f9 d6 89 bc
       -0.044978295 0.08417821 -0.055391993 -0.01682614
0003d0 b4 56 cd b9 60 b1 64 3d d9 b4 bc 3d f3 fc b4 bd
       -0.00039165246 0.05583322 0.092141815 -0.08837309
0003e0 9e 52 c9 3c b2 a0 5b bd 8b 6e 10 bd da 0b 14 bd
       0.024575528 -0.053620048 -0.035261672 -0.036144115
0003f0 e8 2e 17 3d 29 9f 27 3d 08 f7 2a 3b 82 4a 28 3b
       0.036909968 0.04092327 0.0026087184 0.0025679176

feature_extractor.1.weight f4 [512]
000000 e1 22 76 3f 81 73 80 3f 2e 1f 75 3f d1 d5 74 3f
       0.9614697 1.0035249 0.957507 0.9563876
000010 84 ff 80 3f 85 86 89 3f 75 14 7c 3f 77 ad 77 3f
       1.0077977 1.0744177 0.98468715 0.9674906
000020 78 d3 86 3f d8 b3 83 3f d3 fb 78 3f 3f 1f 82 3f
       1.0533285 1.0289259 0.97259253 1.0165786
000030 9f 82 7d 3f 54 16 78 3f 95 6a 88 3f 72 0e 8b 3f
       0.99027437 0.9690907 1.0657526 1.0863783
000040 99 15 75 3f 1e d8 78 3f 7b ab 76 3f ca 03 90 3f
       0.9573608 0.9720477 0.9635541 1.1251156
000050 fd 12 74 3f da e9 6d 3f 6a c9 84 3f 80 e6 77 3f
       0.95341474 0.92934954 1.0373967 0.9683609
000060 14 e1 75 3f 53 ae 72 3f 6c e5 7c 3f 8d 04 83 3f
       0.96046567 0.9479725 0.9878757 1.0235764
000070 ba cc 74 3f b4 34 85 3f 3c 18 6f 3f f7 30 75 3f
       0.9562489 1.0406709 0.93396354 0.9577784
000080 a8 49 8e 3f 5d 86 7c 3f d5 ba 75 3f 77 e6 5a 3f
       1.1116228 0.9864252 0.9598821 0.8550791
000090 06 af 8e 3f dd a0 7c 3f f6 f8 82 3f e9 35 69 3f
       1.1147163 0.9868296 1.0232227 0.91097885
0000a0 4d 48 8a 3f 7f ac 62 3f 0f 98 78 3f 80 a5 82 3f
       1.0803314 0.8854446 0.97107023 1.0206757
0000b0 54 67 8c 3f b9 15 70 3f 31 8c 84 3f 0d b6 86 3f
       1.0969033 0.93783146 1.0355283 1.0524307
0000c0 dd 0e 7e 3f 48 7f 91 3f c9 f8 66 3f 7a ec 77 3f
       0.9924143 1.1366968 0.90223366 0.9684521
0000d0 6f 48 83 3f c3 5e 63 3f b1 4e 7a 3f 06 7d 80 3f
       1.025648 0.8881647 0.97776324 1.0038154
0000e0 21 76 6f 3f 48 89 80 3f 5b 29 7d 3f 72 d4 79 3f
       0.93539625 1.0041895 0.9889123 0.9758979
0000f0 96 89 6e 3f ea 88 7a 3f 09 9d 7c 3f 44 b9 75 3f
       0.9317869 0.97865164 0.98677117 0.9598582
000100 e1 84 89 3f 96 61 88 3f c1 dd 72 3f 8f 78 7d 3f
       1.0743676 1.0654781 0.9486962 0.9901208
000110 99 24 81 3f 4f 1e 84 3f d6 a5 81 3f f2 a9 77 3f
       1.0089294 1.032175 1.0128734 0.9674369
000120 65 ad 76 3f f0 77 81 3f 20 2d 86 3f 7c 22 81 3f
       0.9635833 1.0114727 1.0482521 1.0088649
000130 b7 ae 7b 3f 59 6c 74 3f 13 16 76 3f 39 d3 82 3f
       0.9831347 0.95477825 0.9612743 1.022071
000140 b4 ed 70 3f 4d 40 80 3f fd dd 87 3f 53 63 87 3f
       0.94112706 1.0019623 1.061462 1.0577186
000150 38 11 86 3f 2a 04 7f 3f 5d 1a 7c 3f 6d cf 79 3f
       1.0474005 0.9961573 0.9847773 0.9758213
000160 bd 19 79 3f 7e e3 83 3f 40 a2 85 3f d3 31 80 3f
       0.973049 1.03038 1.044014 1.0015205
000170 2a ee 83 3f 46 63 7c 3f 9e 05 7b 3f ad a9 70 3f
       1.0307057 0.9858898 0.98055446 0.94008905
000180 44 70 7c 3f 01 59 82 3f 75 d8 7d 3f 13 a0 78 3f
       0.98608804 1.0183412 0.9915841 0.97119254
000190 31 b8 81 3f 5e 37 6f 3f 20 41 72 3f 7a 27 7b 3f
       1.0134336 0.9344386 0.9463062 0.9810711
0001a0 08 79 68 3f b4 7a 75 3f d2 a7 70 3f f0 8a 81 3f
       0.9080968 0.95890355 0.94006073 1.0120525
0001b0 7c 9a 83 3f 68 25 6b 3f 50 3e 7c 3f 47 04 86 3f
       1.028152 0.9185395 0.9853258 1.0470055
0001c0 4e fd 6c 3f c8 1a 81 3f 7d 10 71 3f 2d b9 80 3f
       0.9257401 1.0086298 0.94165784 1.0056511
0001d0 03 10 8c 3f aa 58 81 3f 5f 72 84 3f 5a 89 83 3f
       1.0942386 1.0105183 1.0347403 1.0276291
0001e0 d3 f7 8a 3f da a3 83 3f 63 39 86 3f 29 9f 80 3f
       1.085688 1.0284379 1.0486263 1.0048572
0001f0 05 d7 84 3f 32 8d 89 3f 80 67 73 3f 4f 78 82 3f
       1.0378119 1.0746214 0.95079803 1.0192965
000200 83 8b 77 3f 6b 0e 6d 3f 63 96 8a 3f 44 6b 83 3f
       0.96697253 0.92600125 1.0827144 1.026711
000210 a8 1c 82 3f 03 4f 6d 3f 80 56 7f 3f 75 91 81 3f
       1.0164995 0.9269869 0.99741364 1.0122515
000220 8e 5f 84 3f 79 74 82 3f b8 b8 80 3f 15 2f 88 3f
       1.0341661 1.0191795 1.0056372 1.0639368
000230 db 29 85 3f 2e f9 6e 3f 94 1c 82 3f 0b 26 6c 3f
       1.0403398 0.9334897 1.0164971 0.9224555
000240 55 ee 7c 3f c1 c9 7e 3f 59 1a 79 3f 33 3d 78 3f
       0.98801166 0.995266 0.9730583 0.9696838
000250 ef 18 89 3f bb a2 84 3f eb 08 84 3f 2b 61 80 3f
       1.0710734 1.0362161 1.0315222 1.0029653
000260 90 eb 7e 3f 1c b4 7b 3f a0 64 6c 3f 4b 4c 81 3f
       0.9957819 0.983217 0.9234104 1.0101408
000270 d0 87 84 3f 48 e7 79 3f 52 4b 6e 3f 3a a1 76 3f
       1.0353947 0.9761853 0.9308368 0.9633976
000280 78 42 80 3f 5b 55 8d 3f 3b 70 7a 3f 41 a7 81 3f
       1.0020285 1.1041673 0.978275 1.0129167
000290 d5 c1 6d 3f e0 0c 74 3f 57 34 7f 3f 1d 22 75 3f
       0.9287389 0.95332146 0.9968924 0.9575518
0002a0 29 18 76 3f 4d 4e 7d 3f 28 e5 7d 3f 25 7f 6f 3f
       0.96130615 0.989476 0.9917779 0.9355338
0002b0 05 2e 8d 3f 99 67 80 3f 7e 4a 74 3f c1 f0 80 3f
       1.1029669 1.0031615 0.95426166 1.0073472
0002c0 73 0f 7f 3f 0a 1a 7d 3f e1 cf 6c 3f 3e 03 68 3f
       0.9963295 0.9886786 0.925047 0.9062995
0002d0 80 64 8c 3f a3 f6 67 3f d5 15 81 3f 49 2f 84 3f
       1.096817 0.9061071 1.0084788 1.032693
0002e0 37 af 85 3f 1d f9 83 3f 9e 69 7e 3f 65 a1 75 3f
       1.0444096 1.0310398 0.9937991 0.95949394
0002f0 81 5e 7e 3f 7c 26 88 3f b7 7e 7d 3f c8 fe 73 3f
       0.9936295 1.0636744 0.99021477 0.9531064
000300 63 6a 84 3f f5 20 7d 3f 52 b2 7e 3f 60 a8 80 3f
       1.0344967 0.98878413 0.99490845 1.0051384
000310 b9 8b 73 3f 43 cf 86 3f 31 43 80 3f ab 37 72 3f
       0.95135075 1.0532001 1.0020505 0.9461619
000320 e1 f1 86 3f b4 c8 80 3f 1e 84 6d 3f ed 3e 7e 3f
       1.0542566 1.006125 0.9277972 0.9931477
000330 74 8e 7d 3f d0 89 7f 3f 0d c0 80 3f ae b1 84 3f
       0.9904549 0.9981966 1.0058609 1.0366724
000340 93 20 69 3f 40 70 83 3f ed 4f 71 3f f5 cf 86 3f
       0.9106533 1.0268631 0.9426258 1.0532213
000350 23 ae 79 3f 89 c5 79 3f a4 22 70 3f 9b cc 7a 3f
       0.97531337 0.9756704 0.9380286 0.97968453
000360 f5 6e 6c 3f 97 47 84 3f 26 e7 70 3f ce d3 72 3f
       0.92356807 1.0334347 0.94102705 0.9485444
000370 3d b9 8b 3f 07 8e 74 3f 47 31 82 3f a6 ea 7b 3f
       1.0915905 0.95529217 1.0171288 0.9840492
000380 60 17 78 3f ff d6 7b 3f 93 cc 79 3f 80 2c 71 3f
       0.9691067 0.98374933 0.9757778 0.94208527
000390 fc c4 81 3f f0 7b 80 3f 00 2b 85 3f af 83 73 3f
       1.013824 1.0037823 1.0403748 0.9512281
0003a0 94 0d 82 3f 2c fb 6e 3f fa e9 83 3f 63 4f 7a 3f
       1.0160394 0.9335201 1.0305779 0.97777385
0003b0 b8 ba 80 3f ae d5 83 3f a2 39 89 3f 14 1f 74 3f
       1.0056982 1.0299585 1.0720713 0.9535992
0003c0 7a 76 7c 3f 74 45 6f 3f 9a f0 85 3f fa 00 8b 3f
       0.9861828 0.9346535 1.0464051 1.0859673
0003d0 4c 7a 83 3f f1 1b 75 3f 14 f9 71 3f 91 0a 76 3f
       1.0271697 0.9574576 0.9452069 0.96109873
0003e0 6b 9d 76 3f 2a 76 80 3f 4e f7 7c 3f e0 44 7d 3f
       0.9633395 1.0036061 0.98814857 0.9893322
0003f0 a4 b9 7e 3f dd 1b 66 3f 87 f1 71 3f dd 9f 82 3f
       0.99502015 0.89886266 0.94509166 1.0205036

feature_extractor.1.bias f4 [512]
000000 8f 61 c8 bd 28 bb 5c 3d 05 53 c4 3a c5 55 a3 3c
       -0.09784233 0.053889424 0.0014978355 0.019938359
000010 2c 96 05 bd d0 24 3b 3d c4 63 7c 3c 5f 61 8a bc
       -0.03261392 0.045689404 0.015404645 -0.016892133
000020 4d 61 d5 bc 18 a6 bb bc 21 7c 10 3c a1 de d3 3b
       -0.026047373 -0.022906348 0.008818657 0.0064657484
000030 29 37 63 bd 4f de 56 bd e8 c9 1e bd 67 eb 2a 3d
       -0.055472527 -0.052458104 -0.03876677 0.041728403
000040 8b 69 1e bb b8 53 02 bd ac a4 59 3c d1 c4 4c bc
       -0.0024171795 -0.03181812 0.01328389 -0.012498097
000050 69 a3 0e bc 71 83 a9 bb af 2e 61 bb 0e 84 b9 bc
       -0.008705952 -0.0051731397 -0.00343601 -0.022645976
000060 c8 06 66 bc 40 f1 35 bd af 3c 2a 3c 14 0e be bc
       -0.014039703 -0.044419527 0.010390445 -0.023200072
000070 a2 b6 9f 3d 42 fe 0d bd 78 6f 13 bd ac 6f 0b 3d
       0.07798506 -0.034666307 -0.035994977 0.034042045
000080 6e 54 e9 bc 00 c5 1d bc 17 73 d9 3c 5f d7 8c bd
       -0.028482642 -0.009629488 0.026544137 -0.06877016
000090 cc 24 52 3d a6 5f 94 3c 37 86 1c bd 99 6b 34 bc
       0.051304623 0.018112015 -0.038213935 -0.011011981
0000a0 f8 00 2e bd ea 2f 83 bd 61 13 cc 3c 3d 4c 0d bc
       -0.042481393 -0.06405623 0.024911584 -0.008624134
0000b0 b4 af 9e bc 73 cf bd 3b 80 2c c6 bc 12 7a a5 3b
       -0.019370891 0.005792552 -0.024191141 0.0050499523
0000c0 46 1e 35 bd ee 9d a9 3c f5 77 8b 3c 6a f2 9d bb
       -0.044218324 0.02070519 0.017024973 -0.004820158
0000d0 18 91 48 bd ff 0c 31 bd ad 34 cd bc a3 41 d6 bc
       -0.048966497 -0.043225285 -0.025049532 -0.026154345
0000e0 24 a7 83 bc 1c f8 80 bd 96 8e 2a bd f1 94 a9 3c
       -0.01607091 -0.06297323 -0.041639887 0.020700904
0000f0 ad c7 4d bd cd ee a7 bc 22 c5 d5 bc 56 ce 6d bd
       -0.050239254 -0.020499611 -0.026094977 -0.058058105
000100 88 fc dc bc 40 15 ed 3c df d5 d5 bb 88 96 11 bd
       -0.026975885 0.028940797 -0.0065257396 -0.03554395
000110 5c 26 46 3c c5 a3 fb bc a5 83 4c 3d 05 21 38 bc
       0.0120941065 -0.03071774 0.049930234 -0.011238341
000120 6b 91 a8 bd a3 d6 22 bd a6 a5 9e bb 8f 57 07 bc
       -0.08230861 -0.039755475 -0.004841524 -0.008260622
000130 c0 45 31 3d f3 95 6a bc d1 46 9e bd e7 14 f9 bb
       0.04327941 -0.014317977 -0.07728351 -0.0076013687
000140 f1 c8 00 bd 94 0b 41 3b 4b ff 90 bd 0a 15 97 3c
       -0.031441633 0.0029456364 -0.07079943 0.01844265
000150 0b fa 14 bd 6a 41 5e bd 8c f0 b4 3b fe 80 40 bc
       -0.036371272 -0.054261602 0.0055218395 -0.011749504
000160 31 3a d2 3c d2 9a 47 bd 9b 4c 1e bb ac ed 47 bd
       0.025662513 -0.048731633 -0.0024154547 -0.048810646
000170 fe f1 dd bc 01 7d e3 3c 7a 2b 0f 3d 2a 98 1a 3d
       -0.02709293 0.027769567 0.03495357 0.03774277
000180 a7 4b a5 bc df 36 f1 bc 7c 81 2a bd e3 72 b2 bd
       -0.020177675 -0.02944511 -0.041627392 -0.08713319
000190 e7 4c 7b ba b4 4e 03 3c 73 98 0d bc 2e ba 11 bd
       -0.00095863495 0.00801437 -0.008642304 -0.035577945
0001a0 0b 8c d0 bc 6e e2 66 bb 23 21 7f bd 6a 13 46 3c
       -0.025457403 -0.0035230177 -0.06228746 0.01208959
0001b0 fd f1 31 bd 0b f8 8f 3c 91 7d c4 3c 34 19 86 3c
       -0.04344367 0.01757433 0.023985656 0.01636944
0001c0 29 2f 44 bd a4 65 3a 3c fb e2 d8 bc 86 d7 59 bd
       -0.047896538 0.011376772 -0.02647542 -0.053184055
0001d0 d2 96 03 bd e2 f5 3e 3d ed 54 88 bc 63 0b 0a bd
       -0.032126255 0.04662121 -0.016642058 -0.033702265
0001e0 dc f1 d4 bc 2d ee 0d bd de cf b4 bc 1f bf ca bc
       -0.025994234 -0.03465097 -0.022071775 -0.024749337
0001f0 7f b5 4f bc fc ab ee bb ac fb 32 3c 4f 8e 6d 3c
       -0.012677549 -0.0072836857 0.010924261 0.014499261
000200 9b 42 4a 3d a8 03 54 bd f0 8c 8e bc dd 69 a8 3b
       0.049379926 -0.0517613 -0.017401189 0.005139573
000210 b4 95 92 bd d9 0f 51 bd 5c 8d 1a bd f4 ed 0a bd
       -0.0715746 -0.051040504 -0.037732467 -0.033918336
000220 99 09 ef bc 36 63 f0 bb 5a 3c 97 bc be 5b fd bc
       -0.029179381 -0.0073360456 -0.018461395 -0.030927535
000230 b3 74 97 3d bc b5 3c bd 7c 23 12 3b bd 3e 72 bc
       0.073953055 -0.046071753 0.0022298982 -0.014785466
000240 8d b2 81 bc 4b fa 5e 3c 32 c7 a4 bc 30 17 1d bd
       -0.01583221 0.013609479 -0.020114515 -0.03835219
000250 ea ee 64 3c 58 dd 1c 3d 2e e8 8c bc a5 08 1d 3d
       0.013972977 0.038297027 -0.017200556 0.038338322
000260 3c 38 cc bc c2 c6 da 3c 19 d9 e1 ba b9 ea 63 bd
       -0.024929158 0.026706103 -0.0017230838 -0.05564377
000270 3c 6f c2 bc 9f a0 a8 bc b7 25 95 b9 d6 0a 0f bd
       -0.023734681 -0.020584403 -0.00028447594 -0.034922443
000280 f9 92 ff bc 30 81 51 3c 4d 1f f6 3b 60 0d 08 3d
       -0.031198012 0.012787148 0.0075110556 0.03321588
000290 50 65 96 3b 37 95 7c 3c 80 cb 31 bd 2e b7 2b 3c
       0.004589714 0.015416435 -0.043406963 0.010480685
0002a0 cf 04 33 bd 54 77 c9 bc 1a 8c 8a bd fc 64 91 bc
       -0.043705758 -0.024593033 -0.067650035 -0.017748348
0002b0 d7 12 fb 3c fa 12 7b 3c 91 0f 11 bd 2f 24 90 bd
       0.030648632 0.015324349 -0.035415236 -0.070381515
0002c0 f6 3c 3c bc 9f 9a c2 bc 18 5f 4b bd f6 9b f3 bc
       -0.011489144 -0.02375537 -0.049651235 -0.029737454
0002d0 3e 32 06 3d d9 77 72 bd 98 68 d9 3d 02 e3 75 3c
       0.03276276 -0.059196327 0.10615653 0.015007736
0002e0 8d 4e 89 bc 9f 1d 2c 3d 9a a0 36 bc 01 26 7c bc
       -0.016761089 0.042020436 -0.011146689 -0.01538992
0002f0 03 4d c9 bc 51 c9 3e bd a9 b9 13 bc b5 7d 05 bd
       -0.024572855 -0.04657871 -0.009016433 -0.032590587
000300 7f 95 8e 3d a0 57 fc bb 7d 35 95 bd 11 d2 91 ba
       0.06962108 -0.0077008754 -0.07285593 -0.0011125227
000310 0c 31 25 3c de cd e8 bc 76 f9 a0 bd d1 e5 0d bc
       0.0100824945 -0.028418478 -0.07860081 -0.0086607495
000320 45 cf bb bd 49 8a 73 bc b8 46 7d bd 1e b1 25 bd
       -0.09170393 -0.014864513 -0.06183502 -0.040452115
000330 0b bb 82 bb c8 8d 27 3d cc 48 b3 bb f1 90 15 bd
       -0.0039895824 0.040906698 -0.0054713245 -0.03651518
000340 71 08 75 bc be 35 19 3b 2f 86 f4 3b 79 6a 59 3d
       -0.014955626 0.002337798 0.007462285 0.053080056
000350 07 00 02 bd 32 00 5d 3d 4e cb 06 bd 98 37 80 bd
       -0.031738307 0.053955264 -0.03290873 -0.06260604
000360 0b ad 8e bb fa 35 f5 3c 49 fa e0 3b d2 ea 1d bd
       -0.0043541244 0.029932965 0.006865774 -0.03855402
000370 e2 6e 01 bd c3 af 1d 3d 88 61 bf ba 78 b5 d0 bc
       -0.031599887 0.038497698 -0.001460121 -0.025477156
000380 8a 8a 57 bd ce 96 bc 3c 47 d6 ac 3c 0c a8 63 bc
       -0.052622356 0.023021128 0.02109827 -0.013895046
000390 8c 0b 0e bc 1f a7 a3 3c 5b 48 9f bc bb 4b fb 3b
       -0.008669745 0.01997715 -0.019443681 0.00766894
0003a0 af 0a f2 bc f1 2d 32 bc 53 c0 3a bd 41 68 a0 bd
       -0.02954611 -0.010875211 -0.04559357 -0.07832385
0003b0 7f 2c a6 3c 13 09 35 bb 8b f9 93 3d 05 24 05 bd
       0.02028489 -0.0027623817 0.07225331 -0.032505054
0003c0 d4 f8 82 bc 45 a2 ed bc 7d 32 42 bc 0a 14 56 3b
       -0.015987791 -0.02900804 -0.011852858 0.0032665753
0003d0 b2 ca 1e bd 51 c2 8a bd 53 1c f1 3a cb 71 11 bd
       -0.038767524 -0.06775344 0.0018395282 -0.035508912
0003e0 0f c1 e2 3c e4 69 5c 3d eb e8 a1 3c 2f 08 9a 3c
       0.027679948 0.053811923 0.019764384 0.01880273
0003f0 06 96 ea 3b 30 5c cf bb 17 73 78 bc 2c ac cf bc
       0.0071589975 -0.0063281283 -0.015164158 -0.025350653

feature_extractor.1.running_mean f4 [512]
000000 4b a6 a6 c7 c5 cb fd 47 16 92 b8 47 83 11 96 46
       -85324.586 129943.54 94500.17 19208.756
000010 d2 6b ae c7 f3 01 be c7 3a 1d 45 46 47 1f 8c c7
       -89303.64 -97283.9 12615.307 -71742.555
000020 67 1d af c7 90 30 03 c8 34 a3 ec 47 f9 8e ab 47
       -89658.805 -134338.25 121158.41 87837.945
000030 99 12 4f c8 13 44 9a c7 5e b9 c5 c7 d9 3b 9e c7
       -212042.39 -78984.15 -101234.734 -81015.695
000040 bc a4 00 48 85 76 4e c8 2a c8 01 48 d9 93 f6 c7
       131730.94 -211418.08 132896.66 -126247.695
000050 80 86 d8 47 1d 0d a9 47 c3 75 13 c8 1b 5d 30 c7
       110861.0 86554.23 -150999.05 -45149.105
000060 fb 61 d3 45 78 6d 3c c6 5a 17 d3 c7 24 bb c8 c7
       6764.2476 -12059.367 -108078.7 -102774.28
000070 65 23 be 47 a0 5d 03 c8 1b ab 53 46 e9 ce f7 47
       97350.79 -134518.5 13546.776 126877.82
000080 2a da e8 c7 30 90 f2 c7 71 a1 de 47 c1 28 66 47
       -119220.33 -124192.375 113986.88 58920.754
000090 83 de a4 c7 a1 a1 a6 c7 2a 89 15 c8 89 c2 b1 47
       -84413.02 -85315.26 -153124.66 91013.07
0000a0 8d fb e9 c7 0f 11 17 48 1a a8 47 c6 03 dd 39 c8
       -119799.1 154692.23 -12778.025 -190324.05
0000b0 48 54 6e c7 48 d9 d1 47 14 1f 63 c8 03 77 b1 c7
       -61012.28 107442.56 -232572.31 -90862.02
0000c0 d6 78 59 c7 a6 0d 05 c8 29 c8 26 c7 8e 7c a8 47
       -55672.836 -136246.6 -42696.16 86265.11
0000d0 f9 dd 5a c5 c7 19 d7 47 81 15 4d 45 30 1c 54 c7
       -3501.8733 110131.555 3281.344 -54300.188
0000e0 55 d9 86 c7 ef 1e 10 c7 20 18 d5 c7 d2 3e db 47
       -69042.664 -36894.934 -109104.25 112253.64
0000f0 90 f3 9d 47 a7 80 e3 c7 75 54 e6 c7 d5 0a 71 46
       80871.125 -116481.305 -117928.914 15426.708
000100 90 46 02 c8 e6 2b 9b 47 c4 ef 74 47 fa ed 2d 47
       -133402.25 79447.8 62703.766 44525.977
000110 aa 12 6e c7 ca 93 ce c7 bc 2d 47 47 73 2c 5e 47
       -60946.664 -105767.58 50989.734 56876.45
000120 f7 cd 01 c7 bb 0c b7 c7 f7 5d 21 c8 12 1a 0c c7
       -33229.965 -93721.46 -165239.86 -35866.07
000130 ab 2a 11 48 d1 46 69 c7 04 85 71 c7 18 a8 d9 c7
       148650.67 -59718.816 -61829.016 -111440.19
000140 c5 4c c9 47 73 0f 3a 47 91 fe af c7 30 5f 6b c7
       103065.54 47631.45 -90109.13 -60255.188
000150 0e c2 21 c8 f0 c8 1a c8 fc bc 21 48 8d ec 07 48
       -165640.22 -158499.75 165619.94 139186.2
000160 72 52 06 48 37 3b a6 c7 60 19 ff c7 29 30 ab c7
       137545.78 -85110.43 -130610.75 -87648.32
000170 41 28 99 c7 94 52 fc 47 f8 4d e4 c7 dc 69 2d 48
       -78416.51 129189.16 -116891.94 177575.44
000180 d4 ad ed c7 3f 58 a4 c7 8f e8 7d c7 9e 1d fe c7
       -121691.66 -84144.49 -65000.56 -130107.234
000190 72 09 06 c8 6f 08 db 47 90 38 27 c7 f5 97 d8 c7
       -137253.78 112144.87 -42808.562 -110895.914
0001a0 ed c0 6d 47 09 5a 3f 46 50 99 77 c7 15 7b 6e c7
       60864.926 12246.509 -63385.312 -61051.082
0001b0 36 ab 15 c8 c1 d8 77 47 77 11 19 48 af 9f 81 c6
       -153260.84 63448.754 156741.86 -16591.842
0001c0 db d1 e5 c5 46 15 e8 46 d5 5a 19 48 50 b1 13 c8
       -7354.232 29706.637 157035.33 -151237.25
0001d0 41 df 0b c8 ed a4 70 c6 c7 aa e4 c7 3f 1c 85 c7
       -143229.02 -15401.231 -117077.555 -68152.49
0001e0 22 56 0d c8 97 57 9c c7 8e 20 31 c8 02 ba 7f c7
       -144728.53 -80047.18 -181378.22 -65466.008
0001f0 bf 0e be c7 36 eb 13 c8 f6 51 1f 48 35 0c fd c5
       -97309.49 -151468.84 163143.84 -8097.526
000200 9d 47 5c 47 70 b8 0d 48 61 62 e9 c7 a0 f7 3e 47
       56391.613 145121.75 -119492.76 48887.625
000210 eb 79 c3 c7 ed 44 f6 47 a7 86 a0 c7 92 d3 9d c7
       -100083.836 126089.85 -82189.305 -80807.14
000220 a3 53 81 c7 a1 e4 01 c8 5b c2 c8 c7 a8 e5 9a c7
       -66215.27 -133010.52 -102788.71 -79307.31
000230 07 36 6b c7 43 73 26 c7 16 21 9f c7 04 75 34 47
       -60214.027 -42611.26 -81474.17 46197.016
000240 c4 27 c3 c6 19 63 73 44 25 3b 1c c7 05 a8 44 c6
       -24979.883 973.5484 -39995.145 -12586.005
000250 6b 45 eb c7 80 8d a7 44 1b 9b bc c7 7f 9a 62 c4
       -120458.836 1340.4219 -96566.21 -906.414
000260 79 38 da c6 59 c3 00 48 00 a6 dd 47 33 8b 16 c8
       -27932.236 131853.39 113484.0 -154156.8
000270 ab 26 fc c7 7a 4b 19 48 3d e1 8b 47 a7 ac fc c7
       -129101.336 156973.9 71618.48 -129369.305
000280 e6 de f2 c7 ca 96 bb c7 ac 55 ee 47 f6 df 3c c8
       -124349.8 -96045.58 122027.34 -193407.84
000290 63 9c 03 48 5b bb ff 47 6c 03 5a c7 6a 17 7d 47
       134769.55 130934.71 -55811.42 64791.414
0002a0 b3 68 91 c7 38 00 2f c7 f7 73 f3 c7 c3 3d 27 47
       -74449.4 -44800.22 -124647.93 42813.76
0002b0 51 c1 a2 c7 89 ee 8b c5 84 56 b7 c7 6b 87 39 c8
       -83330.63 -4477.817 -93869.03 -189981.67
0002c0 94 e8 89 c5 79 03 ea c7 0e e2 21 47 2b 1e 04 47
       -4413.0723 -119814.945 41442.055 33822.168
0002d0 ed b7 f5 c7 e7 c0 af 47 3f cb 2c 48 00 41 53 47
       -125807.85 89985.805 176940.98 54081.0
0002e0 9f 4e b2 c7 b9 5b 3d c8 a2 5a ca c7 85 12 bf 47
       -91293.24 -193902.89 -103605.266 97829.04
0002f0 1a 68 2c c8 a9 7e d1 c7 9f e5 62 c7 0f ae 93 c7
       -176544.4 -107261.32 -58085.62 -75612.12
000300 a0 7b 12 47 ae e0 00 48 f1 22 23 c8 c0 49 00 c7
       37499.625 131970.72 -167051.77 -32841.75
000310 85 77 cf c6 c8 4a 13 c8 93 eb aa c7 93 ac a3 46
       -26555.76 -150827.12 -87511.15 20950.287
000320 67 09 cb c7 52 14 68 c7 5e 27 89 47 ee f9 fb 46
       -103954.805 -59412.32 70222.734 32252.965
000330 c8 e2 2a c7 03 e7 d7 c7 31 9f 1c 45 9c 2e 57 c8
       -43746.78 -110542.02 2505.9495 -220346.44
000340 b4 58 07 48 a9 42 d7 c7 dd a3 a3 47 29 2d 03 c8
       138594.81 -110213.32 83783.73 -134324.64
000350 63 d1 69 47 b0 fe b2 47 24 75 b0 47 32 34 89 c7
       59857.387 91645.375 90346.28 -70248.39
000360 b2 58 cb 47 5e a7 cc c7 39 3e 9c 47 cb bb 33 47
       104113.39 -104782.734 79996.445 46011.793
000370 16 5e 1b c8 c1 97 07 48 2b c4 e0 c7 8a ef 80 c7
       -159096.34 138847.02 -115080.336 -66015.08
000380 d8 48 e4 47 88 07 02 48 0a 2a 64 47 e3 2f 16 48
       116881.69 133150.12 58410.04 153791.55
000390 3b 7d f4 c7 30 82 9b c7 53 8f dc c7 b6 f9 c7 47
       -125178.46 -79620.375 -112926.65 102387.42
0003a0 9f e5 eb c7 5f 8a b3 47 64 4a 87 c7 2c 97 37 c7
       -120779.24 91924.74 -69268.78 -46999.17
0003b0 b9 4b d5 47 1a 69 bc c7 c3 e4 a2 c7 89 e4 09 48
       109207.445 -96466.2 -83401.52 141202.14
0003c0 b1 3e 8b c4 24 b9 4f 48 7a 69 16 c8 68 ae b3 c7
       -1113.9591 212708.56 -154021.9 -91996.81
0003d0 ad aa 92 c7 6b 6a a9 c7 a7 2a 1e 48 27 2c 01 c8
       -75093.35 -86740.836 161962.61 -132272.61
0003e0 36 de ed c6 9b b5 cd 47 a6 dd b5 c7 a2 61 8c 47
       -30447.105 105323.21 -93115.3 71875.266
0003f0 93 08 f5 c7 61 42 30 47 6c e1 cc 47 80 58 97 c7
       -125457.15 45122.38 104898.84 -77489.0

feature_extractor.1.running_var f4 [512]
000000 bb d1 25 53 1a 5b 03 53 d9 8d 84 52 03 10 3f 54
       7.121883e+11 5.6416915e+11 2.8465775e+11 3.2824295e+12
000010 3d 56 05 54 97 36 01 55 6e f3 58 52 cc c9 bc 52
       2.29071e+12 8.879466e+12 2.3294925e+11 4.0541972e+11
000020 52 98 9c 52 25 ed 7a 53 ad f2 ad 53 1b 0e bb 53
       3.362852e+11 1.07772045e+12 1.4942015e+12 1.6067911e+12
000030 d1 0e 4a 53 fc 39 6a 52 41 0a 95 54 94 bd 3b 53
       8.67832e+11 2.5149879e+11 5.1209773e+12 8.063395e+11
000040 d9 73 a1 52 7c 52 31 53 86 79 c9 53 e0 77 2d 55
       3.4671667e+11 7.615931e+11 1.7306545e+12 1.1920648e+13
000050 e6 9e 08 54 f6 ee 8e 53 57 e3 c5 52 9a bb f1 51
       2.3471257e+12 1.2277889e+12 4.2496134e+11 1.2977932e+11
000060 96 a2 cc 53 b9 25 80 53 f9 5f 8d 52 43 94 08 53
       1.7578021e+12 1.1007774e+12 3.0360027e+11 5.86603e+11
000070 4a 40 08 54 0f 60 7c 54 a7 87 2e 53 33 6b af 52
       2.3407766e+12 4.3357734e+12 7.496002e+11 3.767089e+11
000080 61 c1 48 55 d5 2d 2e 54 06 32 86 53 0a ca 10 52
       1.3795805e+13 2.992373e+12 1.1527297e+12 1.5546624e+11
000090 5c ea 30 55 44 22 f6 52 49 43 e1 52 6a b7 c2 52
       1.2157538e+13 5.2856842e+11 4.8374825e+11 4.181504e+11
0000a0 bb 96 18 55 a9 6f b0 53 24 e9 18 54 00 96 0e 53
       1.0485822e+13 1.5155752e+12 2.626986e+12 6.1240194e+11
0000b0 8b 0d f9 54 d3 c7 a1 52 d4 44 69 53 d2 36 7b 52
       8.5573926e+12 3.474211e+11 1.0018821e+12 2.6973913e+11
0000c0 92 c4 79 53 91 b9 5d 55 0d 72 1a 52 2f ad f8 52
       1.07274476e+12 1.5236817e+13 1.658346e+11 5.340287e+11
0000d0 da 9b c5 53 57 6e 9e 52 38 6e 00 53 96 7b 37 52
       1.6974466e+12 3.40228e+11 5.51605e+11 1.9701311e+11
0000e0 f6 40 0e 53 8c 32 ce 54 4c 20 be 52 a6 b8 34 53
       6.109752e+11 7.0848904e+12 4.0829282e+11 7.76192e+11
0000f0 45 b7 82 53 8c 34 be 52 fe 47 2d 55 52 8c aa 53
       1.122841e+12 4.084627e+11 1.1907795e+13 1.4649972e+12
000100 21 e5 04 54 e6 3e 08 54 82 ac 0e 52 11 69 f0 51
       2.2831193e+12 2.3406833e+12 1.5319489e+11 1.2906936e+11
000110 9a b9 0c 52 85 c5 8b 52 63 3c 26 53 2b 29 af 51
       1.5110232e+11 3.0015714e+11 7.139777e+11 9.4038745e+10
000120 fa 84 81 53 8d f0 93 54 f6 74 f0 52 0f 84 ae 52
       1.1125635e+12 5.0831677e+12 5.163772e+11 3.7476994e+11
000130 8f dd 3b 53 a6 55 90 52 3c d4 0a 54 ae 0e a8 54
       8.06876e+11 3.0995612e+11 2.3850648e+12 5.7744063e+12
000140 e4 ee f4 52 23 a1 d5 53 33 16 64 52 6f 4a a6 54
       5.2598997e+11 1.8350629e+12 2.4490625e+11 5.713707e+12
000150 13 d5 ee 52 58 81 3b 53 4a 4a 55 53 70 f7 c6 53
       5.128885e+11 8.053289e+11 9.160744e+11 1.7091097e+12
000160 5c 8b 0e 53 8d 6a 9d 53 42 0f 9c 54 82 25 49 52
       6.122234e+11 1.352195e+12 5.362167e+12 2.1597943e+11
000170 24 9d d0 54 59 e9 f1 52 67 a1 ed 52 f4 04 19 53
       7.1679166e+12 5.1950102e+11 5.1030757e+11 6.572131e+11
000180 17 a3 c3 52 a9 6e 3d 53 58 d4 8d 53 bc a3 2d 53
       4.201274e+11 8.136054e+11 1.2183059e+12 7.4577635e+11
000190 c6 0c c4 52 2d e5 bb 53 c4 17 02 52 a3 7b 9c 52
       4.2101395e+11 1.6140076e+12 1.3968612e+11 3.360446e+11
0001a0 b7 3a 8c 52 8f 95 da 53 80 21 1d 53 fa c3 15 55
       3.0114025e+11 1.8776241e+12 6.748719e+11 1.0291809e+13
0001b0 f5 06 bf 53 94 c6 eb 52 1c e4 ee 52 8f 64 86 53
       1.640911e+12 5.0632445e+11 5.1301463e+11 1.1544254e+12
0001c0 c3 6f 13 53 b4 2b e9 51 ad 04 19 53 41 c6 01 53
       6.3323524e+11 1.25182575e+11 6.5720844e+11 5.573769e+11
0001d0 fd 5a 91 55 77 27 86 53 93 39 93 52 da 7c 42 55
       1.9977497e+13 1.1523755e+12 3.1616306e+11 1.3365093e+13
0001e0 53 4a 2e 55 c1 15 07 52 20 72 12 53 78 4a f3 51
       1.197714e+13 1.4504639e+11 6.289799e+11 1.306158e+11
0001f0 85 b7 5b 54 3d 8b 54 55 5b 50 ef 52 f7 47 8b 52
       3.7747071e+12 1.4605906e+13 5.1392266e+11 2.991039e+11
000200 2f 6d 1a 53 2c 98 da 52 12 3c 44 55 92 fb 6e 51
       6.6325676e+11 4.6942795e+11 1.3485142e+13 6.415143e+10
000210 e8 a5 6f 52 28 87 40 53 24 47 b1 52 b9 e7 c3 52
       2.5732016e+11 8.2690127e+11 3.8070138e+11 4.2070314e+11
000220 79 2f ed 52 ba c5 03 53 10 2f c1 53 c0 50 a7 52
       5.0935185e+11 5.65958e+11 1.6594365e+12 3.5930715e+11
000230 8f 5d de 51 f6 26 2b 53 d4 fb bf 52 5f 48 c8 52
       1.1938155e+11 7.3509306e+11 4.1228186e+11 4.3010382e+11
000240 4c b9 a4 54 c2 cc 8d 53 1b d7 71 51 e9 00 6a 53
       5.659867e+12 1.2180513e+12 6.49185e+10 1.0050376e+12
000250 5b 34 83 52 a0 56 9a 53 dd ca 55 52 90 10 1f 53
       2.8175955e+11 1.3257566e+12 2.2955788e+11 6.831777e+11
000260 03 9f 09 53 03 57 92 53 57 ca 33 53 b1 a8 34 54
       5.910783e+11 1.2570501e+12 7.7219385e+11 3.1036971e+12
000270 96 53 a4 52 96 41 7b 53 df 3c fe 53 e9 4c e4 53
       3.528885e+11 1.07913714e+12 2.1838859e+12 1.9610858e+12
000280 c1 d7 c5 52 de 64 04 55 03 79 a5 52 11 1e 27 55
       4.2486415e+11 9.098047e+12 3.5534992e+11 1.1484224e+13
000290 cf 58 8f 52 1d db 1f 53 65 de 8f 53 eb a4 19 53
       3.0783514e+11 6.865759e+11 1.235823e+12 6.5989686e+11
0002a0 14 a0 52 53 c6 58 46 51 10 c8 cd 52 be 4f e5 52
       9.046288e+11 5.3243306e+10 4.419124e+11 4.9244268e+11
0002b0 c0 2e aa 54 9f fe 1f 53 63 f3 68 53 d7 a4 27 53
       5.84743e+12 6.8717163e+11 1.00051576e+12 7.200251e+11
0002c0 2d b5 4b 53 10 47 ea 52 06 3c 28 53 5e a7 ab 53
       8.74918e+11 5.031073e+11 7.225615e+11 1.4744947e+12
0002d0 a7 01 b2 52 e1 83 1a 53 71 80 ec 53 b0 f8 c3 53
       3.8226595e+11 6.636375e+11 2.0315343e+12 1.6833818e+12
0002e0 03 71 34 54 aa 6b 18 53 d2 2a 6a 54 83 79 81 53
       3.0999605e+12 6.546413e+11 4.022963e+12 1.1121788e+12
0002f0 4a c1 f6 52 dc e6 03 55 69 2d 31 53 77 42 e1 52
       5.299024e+11 9.064222e+12 7.609711e+11 4.8374137e+11
000300 61 38 0f 54 82 05 f8 53 99 bb 12 53 5a 60 63 52
       2.4605048e+12 2.1304886e+12 6.302126e+11 2.4414352e+11
000310 7a 71 94 54 09 d1 c0 54 5c 90 8e 52 c6 c3 aa 53
       5.100472e+12 6.625126e+12 3.0615365e+11 1.466858e+12
000320 bf b4 03 55 4e a4 4e 52 41 95 7c 53 23 52 e7 51
       9.05077e+12 2.2187996e+11 1.0848358e+12 1.2418943e+11
000330 1b ad 87 53 90 dd 53 53 fc ce 51 53 00 ec 64 53
       1.1654496e+12 9.099553e+11 9.011208e+11 9.8321197e+11
000340 e7 7f 19 53 2d 2f f4 52 00 4f 67 52 29 5c 67 55
       6.5927584e+11 5.2438175e+11 2.4836571e+11 1.5898938e+13
000350 dd 93 3c 54 83 3c 97 52 93 ed a3 52 ab 4b 9f 52
       3.2397383e+12 3.2477764e+11 3.5203275e+11 3.4208465e+11
000360 af de 87 53 05 31 77 52 25 96 59 53 1a d5 32 52
       1.1671132e+12 2.6541983e+11 9.345269e+11 1.9201986e+11
000370 1a 9c 2a 55 9b 78 48 53 bb 61 ef 52 12 53 d7 52
       1.1724214e+13 8.610169e+11 5.140684e+11 4.6240583e+11
000380 a5 43 2b 53 9d 27 d0 53 2c 13 2e 52 6d 3b 24 53
       7.355743e+11 1.7880356e+12 1.8691149e+11 7.0537164e+11
000390 90 11 88 53 d9 29 1c 52 13 42 bd 52 ce ca c2 53
       1.1688204e+12 1.6767925e+11 4.0642868e+11 1.6732523e+12
0003a0 92 d7 2d 53 e5 77 ba 52 42 a2 9e 52 ba 6a 1b 52
       7.46646e+11 4.004377e+11 3.4066353e+11 1.6687763e+11
0003b0 af e3 ed 52 03 e3 16 52 01 00 29 52 fc 26 5d 53
       5.1086357e+11 1.6201343e+11 1.8146238e+11 9.498418e+11
0003c0 c9 d1 ff 53 ef 20 99 53 1a e0 cd 52 1a 34 2b 54
       2.1974725e+12 1.315365e+12 4.4211405e+11 2.941254e+12
0003d0 94 c4 68 52 38 9f 9c 53 d5 8b 03 53 71 2b fa 53
       2.4993261e+11 1.3453723e+12 5.649867e+11 2.1489413e+12
0003e0 cd b0 d7 52 43 ed f2 52 62 7c 9e 52 bd 51 28 54
       4.631921e+11 5.2168134e+11 3.403458e+11 2.8917034e+12
0003f0 0c ee 94 52 aa b2 c1 53 3b c8 ee 53 6d 9e 5b 54
       3.1982446e+11 1.6638523e+12 2.051123e+12 3.773023e+12

feature_extractor.4.weight f4 [256, 512]
000000 55 83 6f bc 87 c7 64 bc df 3b 8f bc 45 81 97 3c
       -0.014618714 -0.013963587 -0.017484603 0.018494258
000010 73 cd 9f 3b 20 60 37 bd 9d 1f 29 3d 24 4a c3 3b
       0.0048767864 -0.044769406 0.041289914 0.005959766
000020 5b 06 b7 ba 29 8a b7 bc 7d af b1 3c 38 ef f5 3c
       -0.0013963686 -0.022404747 0.021690125 0.030021295
000030 d4 e7 ea bb 0d 84 1f bd ef a8 0f bc ad 46 17 bd
       -0.0071687493 -0.038944293 -0.008768304 -0.036932636
000040 48 3e 2c bd bb a9 f4 bc 80 68 db 3c f8 96 36 bd
       -0.042051584 -0.02986609 0.026783228 -0.04457757
000050 b9 6e 54 3b 9a 05 50 bd 49 9b 9b bd 17 b0 9a bb
       0.0032414629 -0.050786592 -0.07597978 -0.0047206986
000060 06 cc 83 bb fd cf 44 bb 66 43 63 3a 24 a5 86 bb
       -0.004022124 -0.0030031197 0.0008669406 -0.0041090418
000070 e4 99 33 3d 9e cc 93 bc 26 bb 5f 3d ad f6 b4 ba
       0.043847933 -0.018041905 0.054621838 -0.0013806425
000080 04 b2 8f bd c8 64 03 bd 39 de 80 3c c2 9d 0a 3d
       -0.07016376 -0.032078534 0.015730964 0.033841856
000090 6b 0a 22 bd 2e 10 fe 3c ae 6c 9c bd c4 c2 80 3b
       -0.039560717 0.031013574 -0.076379165 0.003929468
0000a0 6d 7b 62 3c 33 08 ec bc 25 7e 87 3c 79 8b 63 bc
       0.013823372 -0.028812503 0.016539643 -0.013888233
0000b0 fd 05 41 bd 5d a6 01 3d cc f4 3e bc 04 7f a7 bd
       -0.04712485 0.031652797 -0.011655044 -0.08178523
0000c0 e4 26 2e bc 81 58 d1 bd ee a6 57 3c ca 56 4b bc
       -0.010629389 -0.10221959 0.013162358 -0.012410829
0000d0 0c 30 39 3d 8f 8c 30 3d 52 57 00 bd 0e ff 19 3d
       0.045211837 0.043102797 -0.031333275 0.037596755
0000e0 fd c2 22 3d d2 3a d4 bb 9f 82 52 bd 4b 12 00 3b
       0.039736737 -0.0064767385 -0.0513941 0.0019542153
0000f0 01 5d 22 bb dc 49 34 3c 7a a2 2f bc c4 7a 4c 3d
       -0.0024774673 0.011003938 -0.01071989 0.049921766
000100 94 90 99 bc 59 7e 46 3d 5f 73 ad 3b 59 34 21 bd
       -0.018745698 0.04846034 0.0052932943 -0.039356563
000110 ef 31 bc 3c 9a 74 a4 3c 14 fd 8e 3b fe db eb 3c
       0.022973029 0.020075131 0.0043636654 0.028791424
000120 2f 7b 0b bd ab d2 0d 3d 89 b5 a8 bd 9a 4f 53 bd
       -0.034053024 0.034624737 -0.0823775 -0.051589586
000130 5c f8 c1 bb ca fa 9c bc 86 7e 48 b8 fb 2f d9 bc
       -0.0059194993 -0.019162554 -4.780155e-05 -0.026512137
000140 85 94 d3 bc 3c 5c ba 3c 1f 42 16 bd 7b b1 1e bd
       -0.025827656 0.022749059 -0.03668415 -0.038743477
000150 cb b5 25 bc 66 00 47 bd 92 80 42 3b 77 d9 17 bb
       -0.010114144 -0.048584364 0.0029678685 -0.002317039
000160 61 98 12 3c b9 37 91 bd 77 ff 6d 3b 40 54 09 bd
       0.008947463 -0.070907064 0.00363156 -0.033527613
000170 b5 fa 0b bd 9c 59 e8 bc 32 48 90 3a 8f 06 27 3d
       -0.03417464 -0.028363042 0.0011007844 0.04077774
000180 ea 01 d7 bc 0e b7 2e bd f7 d8 23 bd cf 5a 18 3b
       -0.02624603 -0.042655043 -0.040001836 0.0023247486
000190 5e 5b 0e bd cd 65 b9 3c 06 a9 c6 3b 91 77 92 bd
       -0.034755103 0.02263155 0.0060626296 -0.07151712
0001a0 26 77 64 bc 0e 74 96 3c 14 94 c2 bc 9c 40 74 3c
       -0.013944423 0.018365886 -0.02375225 0.014907982
0001b0 20 bd 9a bd 59 98 ed 3a 2c 8c 23 bd 21 30 a9 bc
       -0.07555604 0.0018127068 -0.0399286 -0.020652832
0001c0 ed 15 6c 3c 6d 7a e3 bb d0 e0 19 bb 9f 9f b1 bc
       0.014409524 -0.0069420845 -0.0023479946 -0.021682559
0001d0 ad f8 e8 bb 7e df 8b bb fb a1 6c bc 3e b3 4c bb
       -0.0071097226 -0.0042685857 -0.014442916 -0.0031234766
0001e0 50 af 50 bc 2a 00 d2 bc 79 80 43 bd b2 78 03 bc
       -0.01273711 -0.025634844 -0.047729943 -0.0080243815
0001f0 0c d5 45 bd c8 f0 15 3c 08 c1 18 3d 10 30 e2 3c
       -0.04829888 0.009151645 0.037293464 0.027610809
000200 14 fe ff ba 3d 95 f9 3c b8 eb dc 3c 62 a4 11 bd
       -0.0019530677 0.03046667 0.026967868 -0.03555716
000210 87 32 ba bd 51 11 00 3d 72 02 8a bc e9 7e b1 3b
       -0.090916686 0.031266514 -0.01684687 0.00541674
000220 36 7a ce bb 93 be b3 bc c9 88 46 bd 08 c6 12 bd
       -0.00630119 -0.021941459 -0.048470292 -0.03583339
000230 50 c9 ff bb 42 f8 f9 ba 0a f6 49 bd 4c 4e 3c 3d
       -0.0078059807 -0.0019071179 -0.049306907 0.045973107
000240 8a b2 23 bd ff ae 61 3d 89 ea a7 ba 37 53 97 bd
       -0.03996519 0.05509853 -0.0012810986 -0.07388919
000250 5d 0c 73 bd 22 dc 52 bc be 80 49 bd 04 77 07 3d
       -0.059337962 -0.012869867 -0.049195044 0.033072487
000260 4a ef 8c 3c 1d 58 16 ba e1 1d d1 3c fe 6d 26 3c
       0.017203946 -0.0005735176 0.025526943 0.01015806
000270 76 45 08 bd 24 12 7e 3b 22 1d 13 3d 6d 97 19 3a
       -0.033269368 0.0038768137 0.035916455 0.0005859051
000280 f3 33 3a 3d d3 56 cb bc 25 10 ae bb 4d e7 77 bc
       0.0454597 -0.024821674 -0.005311983 -0.01513083
000290 5b e7 e6 bc b0 7b 9e 3c c8 59 2b bc 19 b5 2f 3d
       -0.02818649 0.019346088 -0.010458417 0.042897318
0002a0 5a 91 c1 3c cf 55 39 bd 30 15 df bc 89 67 86 bc
       0.02362888 -0.04524785 -0.027231783 -0.016406791
0002b0 4e 84 60 bd 55 f1 fa bc 54 8a 62 bc d0 a8 8e 3c
       -0.054813676 -0.030632654 -0.013826925 0.01741448
0002c0 f3 ab af 3c 24 f7 14 3c 8d ce 06 3d 48 b4 b8 bc
       0.021444296 0.009092126 0.032911826 -0.022546902
0002d0 82 77 b0 bc 2b 44 02 3d d3 d6 26 3c 09 10 ae 3c
       -0.02154136 0.03180329 0.010183054 0.02124788
0002e0 f7 c3 59 bc c2 28 2d 3b 31 2b 48 ba 36 21 00 3d
       -0.013291351 0.0026421999 -0.00076358306 0.031281672
0002f0 56 89 50 bd b2 66 1c bd 48 8e 5c bd 61 30 e6 3b
       -0.050912224 -0.038183875 -0.053846627 0.00702481
000300 97 9c 14 bd 89 ea 01 3b bd ee a6 3c 72 ee 8b 3c
       -0.03628215 0.0019823632 0.020377511 0.017081473
000310 d4 b6 6f 3d 29 9a 9a bd 28 86 05 bd d1 b2 93 3c
       0.058523968 -0.07548935 -0.032598644 0.018029602
000320 ff 80 eb bc 98 66 59 3d 51 c4 10 3d 96 dd be 3b
       -0.028748034 0.053076357 0.035343472 0.005824755
000330 cb f5 8f 3c f6 7b 2e bc 78 54 03 bd 49 7d 9a bc
       0.017573258 -0.010649672 -0.032062978 -0.018858569
000340 c2 17 e2 3c 00 01 fa 3c cd 87 c0 3a 27 df 1f bb
       0.02759922 0.030518055 0.0014688909 -0.0024394484
000350 03 41 e1 bc 8f 04 cd 3c a9 79 ec bc 52 88 e0 3c
       -0.02749682 0.025026588 -0.028866606 0.027408753
000360 f4 18 ac bc 98 bc da bc a0 7f 59 bc 8c aa 29 3d
       -0.021007992 -0.026701257 -0.013275057 0.04142241
000370 12 35 8c 3c c9 72 f4 bc 1b 53 81 bd c2 ce 48 bc
       0.01711515 -0.02983989 -0.06314679 -0.012256326
000380 52 e9 84 bc 99 a5 6e 3d 1a 1d 1b 3c f4 0e e0 b9
       -0.016224537 0.058263395 0.009467388 -0.0004273575
000390 50 b6 20 bd 3d 32 36 bc e3 6d 23 bd aa c4 4f 3d
       -0.039236367 -0.011120376 -0.039899718 0.050724663
0003a0 fd 1e 32 bd a5 6f 48 3b 0d d5 63 bd 62 eb 88 bd
       -0.043486584 0.0030584123 -0.055623103 -0.06685521
0003b0 da d7 13 bd 03 97 b4 bd 89 4e 7c bd 84 33 1e bc
       -0.036094524 -0.08817866 -0.061598334 -0.009655837
0003c0 30 a0 b3 3c 89 7c 82 bc fe 5a 8b 3c b9 33 50 bd
       0.02192697 -0.015928524 0.017011162 -0.050830577
0003d0 8a f3 c4 bd a0 2b 82 bb f9 3f b6 3c 89 24 36 bc
       -0.09616764 -0.0039724857 0.022247301 -0.011117109
0003e0 c1 41 d3 bb 51 fc ec bc d9 12 12 3d f9 3e 6b bc
       -0.0064470475 -0.028928908 0.035662506 -0.014358276
0003f0 21 47 6b 3d 6d 5f 12 3d aa 81 35 3d 77 29 f0 bc
       0.05744088 0.035735536 0.04431311 -0.029316647
